model.tflite (tflite, 446476 bytes, 16 tensors)

arith.constant f4 [128]
000000 75 ba 9e 3c 83 6e b6 3c 53 13 a1 bc eb 90 fc bc
       0.019376019 0.022269493 -0.019662535 -0.030830821
000010 e3 b0 0d bd ed 1c 1b bc 4a e8 0e bd dc 21 7a bc
       -0.03459252 -0.009467346 -0.034889497 -0.015266862
000020 9f 51 60 3b 93 93 f0 bc ae 47 f2 bc cd 57 8d bd
       0.0034228337 -0.029367244 -0.029575195 -0.06901512
000030 34 dc be bc 06 11 1e bd 46 d7 8a bc b8 1a 8d bd
       -0.02329836 -0.038590454 -0.016948353 -0.06889862
000040 14 49 05 bd d2 07 03 bd 5f c5 25 bd 33 88 35 bd
       -0.032540396 -0.03198988 -0.04047143 -0.044319343
000050 9f d9 2c bd e4 b3 20 bc 5f 69 2f 3d ea 4f c0 bc
       -0.042199727 -0.009808514 0.0428251 -0.023475606
000060 bc 2a 18 bd 00 9c f5 bc 48 71 55 bc 4f 0b f9 ba
       -0.03715013 -0.029981613 -0.013027497 -0.0019000563
000070 ad 59 99 bd c0 f8 61 bd 34 62 60 bc 62 62 d2 bc
       -0.074878074 -0.055168867 -0.013695288 -0.025681678
000080 c6 77 91 bc d9 b5 64 bd 75 3d 9f bc ed 43 90 bd
       -0.017757308 -0.055837486 -0.019438485 -0.07044206
000090 45 e1 3d bc 87 0c 7f bd 55 7d bf bc 31 1b f7 bb
       -0.011589353 -0.062267806 -0.023375193 -0.0075410833
0000a0 0d 2e 13 bd 02 cc d2 bc 4f 51 10 bd 8e 44 aa 3b
       -0.03593259 -0.025732044 -0.035233792 0.0051961606
0000b0 c6 f3 03 3e fe a3 3f bd 8d 7a 19 bd 85 0d 49 3b
       0.12885961 -0.046787255 -0.03747039 0.0030678224
0000c0 75 b4 34 bd cb 17 81 b9 73 6e b7 bc e3 3a 09 bd
       -0.04411741 -0.00024622525 -0.022391533 -0.033503424
0000d0 d7 42 45 bd 44 21 3d bd d1 ef d2 bc 1e dd b0 bc
       -0.048159447 -0.046174303 -0.025749119 -0.021589812
0000e0 8d 17 68 bd 8f f5 6d bd d3 af 86 bc f5 a3 25 bc
       -0.056663085 -0.05809551 -0.016441261 -0.010109891
0000f0 df fa f8 bc 8e 00 48 bd a8 3d cf 3c 87 73 08 bd
       -0.030393062 -0.048828654 0.025297955 -0.0333133
000100 da ce 10 bd ee 3e 1f bd 8f 28 62 bd 71 28 29 3c
       -0.03535352 -0.038878374 -0.05521446 0.010324583
000110 85 67 29 bd 96 8f 9f bc 0c 05 00 bd b1 0a 0f bd
       -0.04135849 -0.019477647 -0.031254813 -0.034922305
000120 4e 35 85 bd 94 b4 df bc 27 9c 37 bd eb 4c 53 bd
       -0.06504308 -0.027307786 -0.044826653 -0.051587027
000130 e6 5f e0 3a 92 e8 7e bd c5 97 3b bd 93 0b fe bc
       0.0017118424 -0.062233515 -0.045799036 -0.031011378
000140 8e 9c 28 bd 06 55 75 bc 0d 05 12 ba 6e 4a be bc
       -0.041164927 -0.014973884 -0.00055702106 -0.02322885
000150 51 fb cc bb f0 42 db bc 8e af be bd 63 ed 30 bc
       -0.006255545 -0.026765317 -0.09310828 -0.010798785
000160 41 33 aa bc c6 00 34 bd 39 ed 2e 3c 33 bc 8d bc
       -0.020776393 -0.04394605 0.0106766755 -0.017301654
000170 59 c8 a7 bc 9a ac 0a bd e4 5c 15 bd 42 33 a5 bc
       -0.020481275 -0.033856012 -0.03646554 -0.020166043
000180 89 6f 41 bc 2f 57 1b bd 1a 68 ef 3b a9 e0 cd bc
       -0.011806377 -0.03792494 0.007306111 -0.02513154
000190 17 d8 d4 bb 29 60 99 bc 98 68 90 bc c8 df 85 bc
       -0.0064954865 -0.01872261 -0.017628 -0.016342059
0001a0 5e 1a 1a bd 89 cf 87 bc a9 ba 5d bd 82 51 13 bd
       -0.037622802 -0.016578453 -0.05413309 -0.035966404
0001b0 b7 ed d8 bc 82 f4 9d bd b3 30 32 bd a8 9a ca 3d
       -0.026480539 -0.07712652 -0.043503474 0.098927796
0001c0 eb ef ad 3c 4a 16 a4 3b 63 2d 41 3b a4 4a d2 bc
       0.021232566 0.00500754 0.0029476515 -0.025670357
0001d0 4a 7f fa bc a5 11 1a bd eb 8d 41 bd a4 d5 c2 bc
       -0.030578274 -0.037614483 -0.047254484 -0.023783512
0001e0 da 97 8c bc b8 f8 21 bd 1e 47 1d bd 13 4d 7f bc
       -0.017162252 -0.039543837 -0.0383979 -0.015582341
0001f0 da d4 2a bc 3b db 27 bd e2 a8 96 bc 0c 38 da bc
       -0.010426724 -0.04098056 -0.018391076 -0.026638053

arith.constant1 f4 [64]
000000 d0 55 57 bd 85 d3 40 bd 3e bf e3 bc 0a 6f df bc
       -0.05257207 -0.04707672 -0.027801152 -0.027274627
000010 62 d6 2b bd bb 00 1f 3d c0 c8 92 bc 85 36 d9 3d
       -0.0419525 0.038819056 -0.01791799 0.10606102
000020 c9 d4 fa bb f1 8e b8 bd a1 f8 05 bc b5 e0 75 bc
       -0.0076547605 -0.09011639 -0.0081769535 -0.015007188
000030 d7 84 a0 bd 43 2b 34 bd 62 e2 12 bd 02 4e 58 bd
       -0.07837837 -0.04398657 -0.035860427 -0.05280877
000040 76 9b 81 bb 16 e2 e9 bd 73 d7 23 bd 6e 84 cb bc
       -0.0039553 -0.114200756 -0.04000039 -0.02484342
000050 06 27 d2 bd d4 65 61 bd b4 24 0f bd 71 38 69 3b
       -0.102613494 -0.05502875 -0.034947112 0.003558662
000060 32 82 95 bc 17 72 b4 3c 7a bf 5e bd 94 ae e2 bb
       -0.018250559 0.022027059 -0.054381825 -0.006917784
000070 8b 5e b4 bd e6 d7 c7 bd e3 57 91 bd 9d e3 33 3d
       -0.08807095 -0.09757976 -0.07096841 0.04391824
000080 ef e8 17 3c a8 5b 61 bd e8 ec 8e bc 4f 08 8a bc
       0.009271844 -0.05501905 -0.01744695 -0.016849665
000090 01 75 08 bc a8 26 f3 bd 15 d4 03 bd 25 56 be bc
       -0.008328677 -0.118726075 -0.03218468 -0.023234436
0000a0 b7 c3 22 bd 4a 9e 73 bd af a7 dc bc f7 16 54 3d
       -0.03973743 -0.059477128 -0.026935427 0.051779713
0000b0 f0 bd a5 bd 65 e7 ee bc c1 60 ae bd c2 28 f2 bc
       -0.08092868 -0.029163072 -0.08514548 -0.02956045
0000c0 36 85 8a bb e9 b0 e5 bd b7 a3 6c 3d f1 f2 3c bd
       -0.0042273058 -0.112153836 0.05777332 -0.046130124
0000d0 8f 40 be bd d5 b0 23 bd d6 29 fa bd 78 4d 0d 3c
       -0.09289657 -0.039963562 -0.12215011 0.008624427
0000e0 9e 6f ad bc 2a fa b2 bd a6 31 4d bd be 5f 4a bd
       -0.021171387 -0.08739121 -0.050096177 -0.049407713
0000f0 1e 5d 8f bd e0 d4 96 bd 72 52 5c bd c6 0c e8 3c
       -0.070001826 -0.073648214 -0.053789563 0.028326403

arith.constant2 f4 [128, 3, 3, 64]
000000 af 49 cc 3c 59 c2 0c 3d 22 e9 aa bd 07 5c fc 3b
       0.024937479 0.034365032 -0.08345248 0.0077014
000010 88 b2 b1 3b fe 3b 30 3d 8d c4 da bc fc 32 be bd
       0.005422894 0.043025963 -0.02670505 -0.09287068
000020 49 7f 8e bd f2 01 57 3d 67 32 b4 3c 0d 36 de bb
       -0.069578715 0.05249209 0.02199669 -0.0067813457
000030 65 c2 ea 3c 65 1b 5f bd 7a 29 0e 3d dd ad 08 3d
       0.028657148 -0.054469485 0.034707524 0.033368934
000040 4c b7 26 3d f8 75 f3 bc a0 09 7f 3b c3 89 2e bd
       0.04070215 -0.029719338 0.003891565 -0.04261185
000050 a5 36 8d 3c b9 b7 fa 3c da 42 20 bd 36 44 11 bd
       0.01723797 0.030605184 -0.039126255 -0.03546544
000060 d7 8b 1d 3e 7a ed d1 bd 36 6f 8b 3c e5 b9 3f 3d
       0.15385376 -0.10250373 0.017020803 0.046808142
000070 e0 8e 6a bb 68 13 02 3d cb a8 53 bc b3 1b 4c bc
       -0.0035790727 0.03175679 -0.012918661 -0.012457776
000080 51 bc 92 3d 1b 35 6d bd 58 30 a3 bc 54 d4 25 bd
       0.07164825 -0.057911973 -0.019920513 -0.040485695
000090 34 1c 5a bd 16 cc 55 3c c7 75 f1 3d 07 21 c9 3c
       -0.053249553 0.013049146 0.11790042 0.024551881
0000a0 26 6c 12 bd f4 c3 01 3c b1 9e 68 bd 17 7a df 3c
       -0.03574767 0.007920254 -0.056791965 0.027279897
0000b0 ee 39 ca 3c 00 09 14 bd 52 12 0d bd c0 40 aa bc
       0.024685826 -0.036141396 -0.0344413 -0.020782828
0000c0 9f e4 34 bd b7 0f 2f 3d 6a bb 73 3d ec 0a 5b 3d
       -0.044163343 0.042739596 0.059504904 0.053477213
0000d0 89 db 2f 3d eb 4d 16 bb 4c da ec bc ea 6a 9f bd
       0.042933974 -0.0022934626 -0.028912686 -0.07784064
0000e0 5a e4 71 3c 54 9b d3 3c 50 28 36 bd 28 d0 51 bb
       0.014763916 0.025830902 -0.04447204 -0.003201494
0000f0 5d c5 d4 bc 62 e5 5c 3c e7 88 b1 3c d5 1b 6e 3d
       -0.025973016 0.0134824235 0.021671725 0.05813201
000100 bd 5e 4e bc 78 58 54 3c a9 e7 a0 bc a4 27 ba 3b
       -0.01259583 0.012960546 -0.019641714 0.005680995
000110 19 20 6b bd e8 7f e0 bc e1 b7 98 3d 3a d8 4d bd
       -0.057403658 -0.02740474 0.07456947 -0.050255038
000120 3c bc 0a bd 61 70 8e bc e8 c3 fc bc 4b 87 5d 3d
       -0.03387092 -0.01738757 -0.030855134 0.054084104
000130 75 c2 17 b9 7d 7d 98 bc b7 a2 bd bc 9f 6d d2 bb
       -0.00014472923 -0.018614525 -0.023148878 -0.0064217593
000140 9c 66 90 bd 08 d1 c4 bc 20 3d ec bc 05 cc 4e 3c
       -0.07050821 -0.024025455 -0.02883774 0.012621884
000150 77 8e e5 3c 40 eb bc 3a 21 16 52 bd 9f 7a da 3c
       0.028022034 0.0014413372 -0.051290635 0.026669798
000160 e8 c1 af 3c 4a 49 9c bd 56 04 f8 bc 0d 14 20 3d
       0.021454766 -0.07631166 -0.030275505 0.039081622
000170 e1 97 25 bc 5b 62 34 bc 7b 3d 1a bd 95 74 b9 3b
       -0.0101070115 -0.011009778 -0.03765629 0.0056596496
000180 7b dd b3 bc b1 8a 4f bd a8 a7 7b bc dc 59 fa bc
       -0.021956196 -0.050669376 -0.015359797 -0.030560426
000190 1e c9 70 bd 82 38 fe 3c d4 61 38 bc 26 60 b6 3c
       -0.05878555 0.031032804 -0.011253793 0.022262644
0001a0 80 72 0f bd 87 53 3c bd 2f ff 89 3c c4 2e 35 bd
       -0.035021305 -0.045978095 0.016845314 -0.044234052
0001b0 15 d3 5a bd d1 01 26 bc bb b3 30 bc e4 07 95 bc
       -0.05342396 -0.010132269 -0.010785039 -0.01819224
0001c0 78 6d a3 bb 1f 27 9d 3c d4 70 6d bd 01 4f 88 3c
       -0.004987415 0.019183693 -0.05796893 0.016639234
0001d0 b8 83 58 bd ba ad a8 bb 27 28 63 3d f3 af 00 be
       -0.05285999 -0.005147663 0.055458214 -0.1256712
0001e0 d3 5d 83 3c 9a 0d 66 3c 68 c2 12 bd 1c 02 86 bd
       0.01603595 0.014041329 -0.03582993 -0.06543371
0001f0 a7 11 ae 3b 93 d3 9f bc 30 34 44 bc 60 32 60 bc
       0.005312163 -0.019510066 -0.011975333 -0.013683885
000200 99 03 d7 3b bc 91 90 3d ab e3 e9 3b 69 02 d8 3d
       0.006561708 0.070590466 0.007137736 0.10547335
000210 34 d2 81 bc 80 b9 54 3d cc 26 ad 3d cd fd 42 bd
       -0.015847303 0.05193472 0.084546655 -0.047605325
000220 29 3d 05 3c 55 0e a3 bd bc ae 12 3d 31 4a a6 3d
       0.0081322575 -0.07961718 0.03581117 0.0811962
000230 50 64 87 3c 85 00 9f bb e5 8b 6a bd 61 0f c4 3c
       0.016527325 -0.004852357 -0.05726232 0.023933114
000240 bd af c5 3c fa 9b 15 bd 6e 0d 59 bc eb d1 de bc
       0.02413165 -0.036525704 -0.013247831 -0.027199706
000250 d9 7f c5 3c 50 ce a1 3d 7c 1e bb 3c 64 a3 eb bc
       0.024108814 0.07900679 0.022841685 -0.028764434
000260 c0 12 bb 3d 2d a4 69 bd f9 e6 f0 bc 7f 44 2c bb
       0.09134436 -0.057041336 -0.029407011 -0.0026285944
000270 fe 74 a9 bc fb 21 8d bd 64 3e 61 bd d6 97 1e bd
       -0.020685669 -0.06891247 -0.05499114 -0.03871902
000280 f7 db 9e bd 0e d6 97 3c 6e e1 a1 bd 3b 37 17 bd
       -0.07756799 0.018534686 -0.079043254 -0.036917906
000290 a7 37 b5 3c f4 8f f6 3c 08 dc 8a 3d d1 9a 15 bc
       0.022121264 0.03009794 0.06780249 -0.009131149
0002a0 ac b9 95 bd 72 ed f3 bc cc 87 fb 3c da d5 fc 3c
       -0.07310805 -0.029776309 0.030704401 0.030863691
0002b0 15 5c 1c bc 51 30 df bb 57 46 1b bc d1 c8 82 bd
       -0.009543438 -0.0068111797 -0.00947722 -0.06385959
0002c0 b1 95 10 ba 49 8c 5e bb 4c ee 9d bc 06 6c 55 3c
       -0.000551547 -0.0033958128 -0.019278668 0.013026243
0002d0 fa cd ef 3c a3 f1 05 3c b8 09 7a 3d b6 12 2b bd
       0.029273022 0.008175286 0.061044425 -0.04176589
0002e0 06 f1 92 bc 9a 1e 2d 3d 64 c6 b4 ba 0d 2a a8 bd
       -0.017937195 0.042265512 -0.0013792035 -0.082111456
0002f0 0e 69 23 bd 4e e1 bf bc 6a 6c 0f bc 69 6b dc bc
       -0.03989511 -0.023422863 -0.008753875 -0.026906686
000300 5c ea 6d bc 29 4a bd 3d 31 f6 96 bd ef 96 a3 3d
       -0.014521208 0.092426606 -0.07371176 0.07987773
000310 93 e0 23 bc fc 6c 2f bd a7 4f 95 bd d4 37 8b bb
       -0.010002273 -0.042828545 -0.07290583 -0.0042485986
000320 8c 5b 0f bd 7d da 4d bd a7 97 4e 3b af aa 3d 3c
       -0.034999415 -0.050257195 0.0031523497 0.011576339
000330 bd 44 89 bc c3 ce 5d bd 4f 13 2b 3d 95 cb 54 bd
       -0.01675641 -0.05415226 0.04176646 -0.051951963
000340 83 8e f0 bc 02 88 7f bc ec 51 7d bd cc 5c ef bc
       -0.02936483 -0.015596392 -0.061845705 -0.029219054
000350 a4 3b be 3c 13 aa f1 bc ff 83 91 bd c1 80 fe 3d
       0.023221798 -0.029500043 -0.071052544 0.124269016
000360 0a d2 e4 3d 92 41 50 bd 7e 34 28 bc f3 2b da 3b
       0.11172874 -0.050843783 -0.010266421 0.006658071
000370 80 7e 42 3d 7e 0f 2a 3a 71 d5 95 3c 3b aa 3c bb
       0.04748392 0.0006487294 0.018290253 -0.0028787989
000380 a3 65 2b 3d 94 f9 67 bd 75 33 21 3d de 98 60 bd
       0.041844975 -0.0566345 0.039355714 -0.054833286
000390 b5 26 94 3b 19 db ed 3c 65 32 a6 3d 7b 5a 0a bb
       0.004521216 0.029035138 0.08115081 -0.002111106
0003a0 c8 08 0a bd 15 20 9a 3d df 8a 3b 3c 0b 6a 68 3c
       -0.03369978 0.075256504 0.011446684 0.014185439
0003b0 84 9b 91 bd 57 53 9d bd 8e b9 82 bd b8 c4 c5 3b
       -0.071097404 -0.076819114 -0.06383048 0.0060354136
0003c0 3b 20 0b 3d 1d ee 0d 3d 0f 03 b3 3c 52 a4 73 3d
       0.033966284 0.03465091 0.021852044 0.05948288
0003d0 e5 d0 13 3d 57 0b 84 bc 10 ea c3 bc 21 3d 13 bd
       0.03608789 -0.016118689 -0.02391532 -0.03594697
0003e0 45 3a 9e 3d b9 ba 85 3b b6 0b 40 3b d0 af 5b bd
       0.07725958 0.004081097 0.0029303855 -0.053634465
0003f0 c5 be 01 3b e1 e8 5f bd 1d 65 6c 3d c5 96 b4 3d
       0.0019797545 -0.05466545 0.057713617 0.088178195

arith.constant3 f4 [64, 3, 3, 32]
000000 d7 f1 1f 3d a3 16 93 3d 0f 7c ff 3c bf 81 e8 3b
       0.039048996 0.07182052 0.031187085 0.007095545
000010 2e be a9 bd df c9 ce 3c a1 59 9d bd 71 86 56 3d
       -0.08288227 0.025242744 -0.07683111 0.052374307
000020 05 82 34 3d 01 29 02 3e 85 51 b4 bc 40 ca 21 3c
       0.04406931 0.12710954 -0.022011528 0.00987488
000030 18 05 3d bd 0a 1c bd 3d 25 63 42 3d 5a 5b 27 3d
       -0.046147436 0.09233864 0.047457833 0.040858604
000040 e6 e0 f7 bb af d4 8b bd cf 73 15 3d 36 4a 05 bc
       -0.007564652 -0.068276756 0.036487397 -0.008135369
000050 59 22 10 3d 9e 5a 79 3c 44 19 a5 bd 07 09 bf bd
       0.035189006 0.015219359 -0.0806146 -0.09327894
000060 d6 f4 e4 ba 68 7c 9d 3a 0a af 29 3b 8b 2d 53 bd
       -0.0017467986 0.0012015225 0.0025891685 -0.051557105
000070 2c 43 9a 3d 48 1f ab bc 9f 5a b3 3d 69 d2 ab 3d
       0.07532343 -0.02088894 0.08757519 0.08389742
000080 7f 24 82 bd 05 ef e1 3c df 62 b5 3d 9e 36 ae 3d
       -0.06354617 0.027579794 0.08856749 0.08506511
000090 9a b6 03 bd fb 13 dd 3d cf 7a df bd ec 49 f3 3c
       -0.032156564 0.107948266 -0.10912096 0.029698335
0000a0 0f 05 89 3d 79 a4 88 bc a0 5b 92 3d f4 81 3d bd
       0.06690418 -0.01667999 0.07146382 -0.04626651
0000b0 66 7a 24 3d db 90 cc bc 49 e9 8b 3d 23 bf 81 3d
       0.04015579 -0.024971416 0.06831605 0.063352846
0000c0 b9 f3 06 3c 7f 18 0f bd 61 4d e3 3d cd e6 ae bc
       0.008236819 -0.03493547 0.11098743 -0.021350289
0000d0 f1 34 56 3d f0 2e c5 bd c8 c2 75 3d 3d d2 3b 3d
       0.052296583 -0.09628093 0.06000021 0.045854796
0000e0 7f 7c f4 3d 21 cb 23 bb e9 ef a9 3d 50 d4 99 bd
       0.11937808 -0.00249929 0.08297712 -0.075111985
0000f0 ac 84 ed 3b 93 0e a0 3c a0 b0 ca bc 07 b4 7d 3d
       0.0072484817 0.0195382 -0.024742424 0.061939266
000100 66 cb 31 bd 43 b3 80 bd c8 a2 f5 3d fa 29 31 bd
       -0.043406866 -0.062841915 0.11993939 -0.043252923
000110 8b 81 cd 3c 8c a8 cb 3d ec 99 88 3c 87 b2 cb 3c
       0.025086185 0.09944257 0.016674958 0.024865402
000120 34 0b 9f 3d c9 8a e8 3d a2 b7 f8 3d 27 a8 ac bc
       0.07765809 0.11354596 0.121444 -0.021076275
000130 5d b9 c8 3d a8 d8 2b 3b 5f 3f f2 3d d7 6b 24 bc
       0.0980098 0.0026221666 0.11828493 -0.010035477
000140 d2 ce 2a bd df de 93 bd 6e 21 78 3d c4 22 35 bd
       -0.041701145 -0.07220244 0.060578756 -0.04422261
000150 65 95 ea 3b ba 0a 1e bd 3f 16 c0 3c 9b 88 82 3d
       0.0071589225 -0.03858445 0.023448108 0.06373712
000160 05 39 d6 3d d6 a7 a3 3d 28 e0 17 3d 9b 02 ad 3b
       0.10460094 0.079909965 0.037079006 0.0052798516
000170 1a 24 fb bc 7a d4 fb bc e4 18 3c 3d cc 74 9b bc
       -0.030656863 -0.030740965 0.045922175 -0.018976592
000180 1c 24 6c bc 25 a7 09 bd 2d 73 7f 3d 33 11 c6 3c
       -0.014412906 -0.033606667 0.0623657 0.024178123
000190 09 be 6c bd 91 fe b4 bc 75 c6 7b bd bd 58 a6 bc
       -0.05779842 -0.022094043 -0.06146856 -0.020305986
0001a0 ca eb e5 bd 04 af 68 3d af ae 36 bd 3e cc 7e 3d
       -0.11226614 0.056807533 -0.044600185 0.0622065
0001b0 73 ef c2 3d ba 52 a2 bc b7 3e ea bd e0 83 3c 3d
       0.095183276 -0.019814838 -0.11437743 0.046024203
0001c0 31 cb ae 3d 43 db 94 3d 03 0a 5d bd 8f d6 a6 3d
       0.085348494 0.07268383 -0.053964626 0.081463926
0001d0 61 28 8e bd 6a 4c 2c 3c c4 70 5c bd 6b 07 14 bc
       -0.069412954 0.010516265 -0.05381848 -0.009034972
0001e0 e6 68 b7 bc 66 a7 04 bb 41 ce c8 bd 56 b5 dd bd
       -0.022388887 -0.0020241379 -0.09804965 -0.10825603
0001f0 2a e3 44 bd 4e 2b bc bd 82 67 47 bd 40 ab 53 3d
       -0.048068203 -0.09187947 -0.048682697 0.05167699
000200 11 7a a7 bd 3b 85 f3 bc a0 30 2e 3c c7 a2 5c 3d
       -0.08177579 -0.029726615 0.01063171 0.053866174
000210 2a 5e e4 bd 63 61 17 bd 89 e6 ea bd e2 b9 4f bd
       -0.11150773 -0.03695811 -0.11469752 -0.05071438
000220 d9 a6 10 be 01 cf 67 bd 80 5f 22 bd 9a 87 cd 3d
       -0.14126147 -0.0565939 -0.039641857 0.100356296
000230 7a e3 37 3d 9c 7f 68 bd 6a 63 fa bc ab df 8c bc
       0.044894673 -0.056762323 -0.030564982 -0.017196497
000240 40 bb cd 3c ac de a3 3d 58 2e 1e bd ca 52 05 3d
       0.025113702 0.08001456 -0.038618416 0.032549657
000250 de fe 38 bd c4 75 aa bc 1d 5e 88 bb 67 c3 90 bd
       -0.045164935 -0.020808108 -0.00416161 -0.0706852
000260 2b b8 5d bd 4f 05 e0 bd 5c 41 66 3d 66 a4 1d be
       -0.054130714 -0.109385125 0.056214675 -0.15394744
000270 3f 6a ed 3c bd 7a b3 3c 17 23 ee 3c f2 02 c7 3d
       0.028981326 0.021909112 0.029069467 0.09717359
000280 6a c9 88 3d 4c 2c e6 bc fe e9 f0 3b 4c ac 0e 3e
       0.06679042 -0.028097294 0.007352113 0.13932914
000290 7d e3 24 bd 7c 77 a4 3b 73 8d 4e 3c 44 3c 77 3c
       -0.040256012 0.0050191265 0.012606966 0.015090052
0002a0 e6 a1 50 bd 3b 1e 83 3d 17 7e 41 3d 12 65 1b 3d
       -0.05093565 0.064022504 0.04723939 0.037938185
0002b0 e5 34 87 bd 25 72 af bd c9 17 23 3e 14 d6 62 bd
       -0.06601886 -0.08566693 0.15927042 -0.055379942
0002c0 81 df b0 bc 0a 28 31 bb 66 07 c9 3d a5 8f a4 3d
       -0.02159095 -0.0027031922 0.09815864 0.080352105
0002d0 04 8a ac b9 65 72 f8 bc bb 9e e4 3c f6 b8 1d 3e
       -0.00032909226 -0.030327985 0.02790772 0.15402588
0002e0 43 72 e8 3d 08 d2 a8 bd 50 13 6f bd 23 0a 48 3d
       0.11349919 -0.08243185 -0.058368027 0.048837792
0002f0 78 74 ba 3d 4c 8c c9 3c 72 6e 22 3d cf 92 3d 3c
       0.09104246 0.024603032 0.03965611 0.011570646
000300 cc 8c c4 3c 8e df b6 bc ac e3 12 3d 6c 49 fc 3d
       0.023992918 -0.022323396 0.035861656 0.123186916
000310 99 d9 4b bd 7b 20 53 bc 9f 38 28 3d e1 ba 26 bd
       -0.049768064 -0.012886162 0.041069623 -0.040705565
000320 23 9c 29 bd 6e bf a2 bc 9f d6 83 3d 06 24 ab 3d
       -0.04140867 -0.019866671 0.0643742 0.0835648
000330 33 ca 3f 3d 97 fe f6 bd 0b e8 93 bc 6b 0d ae bd
       0.04682369 -0.12060278 -0.018054983 -0.08498653
000340 0a 52 b6 3d 97 f3 99 bd 2c d0 08 3c c8 35 82 3d
       0.089023665 -0.07517164 0.008350413 0.06357914
000350 c2 4c b8 3d 1a d1 33 bd 47 a8 85 3d ea 45 de bd
       0.089990154 -0.043900587 0.06526237 -0.10853179
000360 65 36 9b bb 6a c1 bd bd 08 dd 28 be 62 d8 2d be
       -0.004736709 -0.092654064 -0.16490567 -0.16977075
000370 f8 65 be 3d bb df 0b bd 05 fc 5c bd 27 87 87 3d
       0.09296793 -0.034148913 -0.053951282 0.06617575
000380 ec f0 98 3c 1f d7 a3 3d da f6 8a 3b f6 cd 83 3a
       0.018669568 0.080000155 0.004240853 0.0010055888
000390 ba 12 4f bd 78 14 7c bb ff de 10 be e0 be 0e bd
       -0.05055497 -0.0038464349 -0.14147566 -0.03485
0003a0 06 97 fc bd 3b f5 81 3d 81 09 e8 3c ac 94 03 bd
       -0.12333493 0.06345602 0.028324844 -0.032124206
0003b0 1d d7 9c 3a 38 a2 ed bd 45 77 91 3d c6 22 45 3d
       0.0011965964 -0.116032064 0.07102827 0.048128866
0003c0 6a 0d 2d bc c8 db 9d 3d b9 1a 67 3b 2b 4f 02 3e
       -0.01056228 0.077079356 0.003526373 0.12725513
0003d0 b3 c6 c2 bb 6d 1c e5 bd d4 23 7f bb be 49 99 3c
       -0.005944097 -0.111870624 -0.0038931267 0.01871192
0003e0 22 24 c7 3d ad 0c 05 be 0f 8b 3d be 60 10 16 be
       0.09723689 -0.12993117 -0.18510078 -0.14654684
0003f0 8b 2c 6c 3a 7e ec 00 be 3c b7 5b bd 18 77 aa 3d
       0.0009009323 -0.12590215 -0.053641543 0.083234966

arith.constant4 f4 [4, 128]
000000 ad dc b5 bd e9 ef a8 3d 30 30 02 3e c2 b4 6b be
       -0.08879981 0.08248884 0.12713695 -0.23018172
000010 2c ad 13 bd ce 7d 63 bc 1a 91 b9 3d 75 15 ef bd
       -0.03605382 -0.013884975 0.09060879 -0.116740145
000020 cb 54 99 3e aa 1c 37 3e ee ac 5d 38 cd 94 03 3d
       0.29947504 0.17882028 5.285156e-05 0.03212433
000030 1a 5b d4 3d 48 a7 89 be 55 d5 0e be 4a 09 29 3e
       0.10368939 -0.26885438 -0.13948567 0.1650745
000040 09 37 aa 3d 2a 22 3b 3d 5c 75 9e 3e f1 d6 d2 3d
       0.083112784 0.04568688 0.30948913 0.10294903
000050 ea aa bd be 35 a5 35 be b6 be 4d be 23 fc fd bd
       -0.3704446 -0.17738803 -0.20092282 -0.12401607
000060 70 c7 93 3e 72 fe e7 bd 14 97 3f be c1 9e 47 be
       0.28863096 -0.113278285 -0.18709975 -0.19494154
000070 8a a3 b9 be de 4b 93 3c 1f ee 05 be 15 46 d3 bd
       -0.36257583 0.017980512 -0.13079117 -0.103161015
000080 6e 8d 07 bd 38 82 95 3c 63 be 5b be ba bf 5c 3e
       -0.033093862 0.01825057 -0.21459346 0.21557513
000090 c2 87 28 3e 4d 57 4d be 36 4c 68 be 1d 3b 4f 3e
       0.16458037 -0.20052834 -0.22685322 0.20237394
0000a0 db 2b 10 be 95 2c 57 3e d6 17 46 3e 74 e2 f3 be
       -0.1407923 0.210131 0.1934503 -0.47633708
0000b0 4e 57 c3 3d 8e ec 77 3e 57 2d 3b 3e af 5c e0 3d
       0.095381364 0.24211332 0.18279015 0.10955178
0000c0 88 23 8a 3e 82 58 9f be f1 a3 b2 be f3 c1 1a 3d
       0.26980233 -0.31122214 -0.34890702 0.03778262
0000d0 84 3f 7d 3d 50 ba 02 be ae 60 76 3e 2d 28 28 3e
       0.06182815 -0.12766385 0.24060318 0.16421576
0000e0 01 e7 8a 3e 0a 95 7a 3b 08 b1 7f 3e e2 02 ce bd
       0.27129367 0.0038235807 0.24969876 -0.100591436
0000f0 65 81 3b bd 30 f4 32 bd 0c b9 36 bd 2c 17 59 be
       -0.045777697 -0.043689907 -0.04461007 -0.21200246
000100 ba 63 2c 3e 64 05 b4 be 06 29 89 bd cc c6 9a 3d
       0.16834918 -0.35160363 -0.06697278 0.07557449
000110 0f 55 c5 bd 27 16 88 bc 56 bf 4d be 89 7d 13 be
       -0.09635364 -0.016612126 -0.2009252 -0.14403357
000120 cb f3 55 be e7 4a 99 be dc 2d 0a be b5 fe 99 3d
       -0.20893781 -0.29939958 -0.13494056 0.07519285
000130 37 58 95 3e d6 ec 31 be 45 f3 c7 bd 8a 1a 05 bd
       0.29168865 -0.17375502 -0.09763197 -0.032496013
000140 2e 92 65 3d 08 e6 39 be 76 83 29 be 51 39 02 be
       0.05604761 -0.18154156 -0.16554055 -0.12717177
000150 c2 9c c3 bd 69 5a b4 bd e1 69 43 be 79 70 90 3c
       -0.095513836 -0.08806307 -0.19083358 0.017631756
000160 66 8c 99 bd a0 7d 88 bd 9b ef 47 3e 33 b6 94 3d
       -0.07497482 -0.06664586 0.19524996 0.07261314
000170 3a cc 2d be ab bf b9 3c b2 2d 6b 3e f3 f9 bc 3c
       -0.16972438 0.022674402 0.2296665 0.023068404
000180 37 64 4e be 18 ac 97 bd 69 0c 57 bd eb 1d dc 3c
       -0.20155416 -0.07405871 -0.05250207 0.026869735
000190 cf c1 2b be b7 0d 26 3e 8f 80 38 3e e6 e2 68 3e
       -0.16773151 0.1621617 0.18017791 0.22742805
0001a0 5e 61 62 be 16 aa 81 3e f0 d1 2f 3e 18 aa c5 3d
       -0.22107455 0.25325078 0.17169929 0.096515834
0001b0 1d 29 2d be 42 ae a5 be 7c 58 9c 3d 9f 08 2c be
       -0.16910215 -0.3235951 0.076340646 -0.16800164
0001c0 08 2f 00 be 96 1b a3 3d 48 c2 0a be a9 1f b8 bc
       -0.12517941 0.07964246 -0.13550675 -0.022476034
0001d0 5d 71 66 be 5b 10 59 be 3c 80 63 bc 49 dc 9a 3c
       -0.22504182 -0.21197645 -0.013885554 0.018903868
0001e0 00 ee 08 3e ea 05 3e be 98 87 c8 bd 0f 33 9c be
       0.1337204 -0.18556944 -0.097914875 -0.30507705
0001f0 7e 94 04 3d 2c d7 02 3e 7d 60 5f 3e 60 12 9e be
       0.032368176 0.12777394 0.21814151 -0.30873394
000200 a2 79 59 3d b2 38 ec bd d5 d4 ea bd 15 a5 08 be
       0.053094514 -0.11534251 -0.11466376 -0.13344224
000210 6f 64 72 be 01 75 19 3e 38 6b 3f be 37 b4 7d be
       -0.23671125 0.1498604 -0.18693244 -0.24775778
000220 50 06 2d bd b2 aa 58 3e 92 90 5f 3e 7a 97 30 be
       -0.04224235 0.21158865 0.21832493 -0.17245284
000230 e2 97 56 be 88 d3 20 3e 46 dd 30 3d 19 e3 8e 3e
       -0.20956376 0.15705693 0.043179773 0.27907637
000240 c2 1c c1 bc 4e 75 0c be 27 48 dc bd 45 b4 89 be
       -0.023573283 -0.13716623 -0.107559495 -0.26895347
000250 2a 9e f5 ba 9c ce 15 be 59 ef 21 bd cf ce a1 3d
       -0.0018739153 -0.14629596 -0.0395349 0.07900774
000260 fb 35 e8 bd 6c cd 8e bd 19 f4 0f be b5 a9 d2 bc
       -0.11338421 -0.06972775 -0.1405796 -0.025715688
000270 8b e1 1c 3d 05 2f c7 bd 12 76 3f 3e 06 2e 74 3d
       0.038301032 -0.09725765 0.18697384 0.059614204
000280 bb 2d 72 3c 2e fc 1b be 7c 21 4d bd af 53 51 be
       0.014781411 -0.15232918 -0.05008076 -0.20442079
000290 22 25 fc bc cf 6d 42 3c 75 d1 e8 bd 29 60 e4 bd
       -0.030779425 0.011867001 -0.11368076 -0.111511536
0002a0 f2 0a 12 be df 1e 32 3e 02 15 1b 3c 86 91 b1 bc
       -0.14261988 0.17394589 0.009465458 -0.021675836
0002b0 89 a0 58 3d d3 cc 18 3d 5c 75 7b be 89 04 18 3e
       0.052887473 0.03730471 -0.24556488 0.1484548
0002c0 95 f0 30 be c7 d2 35 3e 84 92 98 bd a9 14 dc 3d
       -0.17279275 0.17756186 -0.07449821 0.10746128
0002d0 7e 4f 3f 3e c6 c6 72 3d 5f 68 3b 3e c3 e6 88 3e
       0.18682668 0.059271596 0.18301533 0.26738557
0002e0 48 4d 63 3d 36 49 eb bd 2c 17 64 bd fe 7d 73 bd
       0.055493623 -0.11488573 -0.05568616 -0.059446327
0002f0 2a 76 15 be fa cd 52 3d 04 fd 58 bd 76 92 81 3e
       -0.14595857 0.051465966 -0.05297567 0.25307053
000300 bb d1 54 3c 60 a0 66 bd b3 0e 8e be 2f 78 17 3e
       0.012989457 -0.05630529 -0.2774559 0.1479194
000310 ba 10 26 3d e8 1a 15 3e a8 a5 5f be 4b ab a8 3d
       0.040543295 0.14561045 -0.21840537 0.082357965
000320 25 53 47 3d ba 72 05 3e 2a c4 61 3d 47 0d f1 3d
       0.048663277 0.13032046 0.055118717 0.117701106
000330 2f fa 27 bd b5 12 21 be f6 f4 a8 3d 26 3f da 3b
       -0.041010078 -0.15729792 0.082498476 0.00666036
000340 95 1a 70 3e 20 1a 37 be fc e0 27 be 7e c8 37 bc
       0.2344764 -0.1788106 -0.16394418 -0.011217235
000350 d1 97 f2 bc 36 dd 2a be 53 fd 05 be 8b 0d 20 bd
       -0.029613407 -0.16685948 -0.13084917 -0.039075416
000360 18 78 5b 3e de f7 49 be 44 ee cf bd ce a9 33 3d
       0.21432531 -0.1972346 -0.101528674 0.04386311
000370 c5 74 54 be 35 e5 df 3c 43 63 7f be e4 97 46 3e
       -0.20747669 0.027330974 -0.24940209 0.19393879
000380 19 34 aa 3d 2d b2 5a bd a2 ca 0d 3e 14 16 b5 3c
       0.08310718 -0.053392578 0.1384683 0.022105254
000390 98 02 be bc 3d 63 6b 3e 05 01 bc bd 23 fa a8 be
       -0.023194596 0.22987075 -0.09179882 -0.3300334
0003a0 ec 66 b7 bc ae 7f a4 bd 58 5f 60 3e 39 5a 7e bc
       -0.022387944 -0.080321655 0.21911371 -0.01552444
0003b0 6c 1c 16 3d 18 08 c1 bc 73 3c 8b 3e 40 d8 b0 3d
       0.0366482 -0.02356343 0.27194557 0.086349964
0003c0 e1 bb 59 bd 8f d4 a5 3d 41 8e fc bd 07 ca a6 3d
       -0.05315769 0.08097183 -0.1233182 0.081440024
0003d0 3e c7 aa 3d 56 d0 38 3e 99 f9 fa 3d 3d a4 c3 bc
       0.08338784 0.18048224 0.12254638 -0.023882026
0003e0 74 9f 18 bd 45 46 04 3e a0 38 91 3d aa f7 53 3e
       -0.03726144 0.1291743 0.070908785 0.20699945
0003f0 b3 01 86 3e 89 60 0a bd cd 09 4b be ea f3 d4 3d
       0.2617317 -0.03378347 -0.19827957 0.103980854

arith.constant5 f4 [128, 128]
000000 79 de b8 3d df 20 5c bd ec e9 e7 bd 82 5b 82 bd
       0.09026808 -0.053742286 -0.11323914 -0.0636511
000010 ab 50 a4 3d 5b ca 5e 3d 3d 9d d2 3d 2a d0 07 3e
       0.08023199 0.0543922 0.10283897 0.13263002
000020 63 88 0c 3e 40 7f 86 3d 2d 7d aa 3d f6 fc b2 3d
       0.13723902 0.0656724 0.08324657 0.08739655
000030 c7 bb ec 3d 87 7f 81 3c 5a 1a 2c be b5 26 0e 3e
       0.11559253 0.01580788 -0.16806927 0.13881953
000040 b9 85 ac bd b6 22 92 bd b2 62 f5 bd cc d4 8b 3d
       -0.08423943 -0.07135527 -0.11981715 0.06827697
000050 79 b3 a6 bd a2 3a 0f 3d a3 18 dd 3d 71 e1 3f bd
       -0.081397004 0.034968026 0.10795715 -0.046845857
000060 14 6e 0c bd 5f be b6 bd 90 40 cc bb 62 1d ab 3d
       -0.034284666 -0.08923029 -0.0062332824 0.08355214
000070 51 e1 35 bd da 26 43 3e c6 87 31 bd 40 0d 9a bd
       -0.04440433 0.1905779 -0.043342374 -0.075220585
000080 98 98 d9 3d 84 6f f1 3c be 4e d9 3d 43 ce 27 3e
       0.10624808 0.02947212 0.10610722 0.16387276
000090 1b 0f 19 3e 1b 55 d5 3b 45 89 79 bd e6 39 74 bd
       0.14947169 0.0065103895 -0.060921926 -0.05962553
0000a0 a5 a9 26 3e b7 58 94 3d f5 6e 91 3c 45 94 5c bd
       0.16275652 0.072434835 0.017753104 -0.05385234
0000b0 dc db 23 be b8 53 01 be d8 8f d1 bd 4a 78 9d bd
       -0.16001838 -0.12629592 -0.10232514 -0.07688959
0000c0 29 29 ee 3d f3 eb ba bb 20 f9 e2 3d ef fb 26 3e
       0.116289444 -0.005704397 0.11082673 0.16307043
0000d0 ea 91 c0 bd c3 39 a8 bd a6 d5 0b be d4 25 61 bd
       -0.09402831 -0.08214142 -0.13655719 -0.054967716
0000e0 47 6b c2 bc 6a 11 92 3d 3b fb 01 be 35 ce d5 3d
       -0.023732794 0.07132228 -0.12693493 0.104397215
0000f0 2b ac 81 bd 1a b0 b4 3d b9 ed 67 3d db 05 6c bd
       -0.063316666 0.08822651 0.056623194 -0.05762277
000100 b7 61 07 3e e3 4a 50 3d 2b 84 27 bc 33 a6 60 bd
       0.13220869 0.050852668 -0.010224382 -0.054846
000110 8a 06 e2 3c 9b 19 38 bd 30 08 2f 3e 11 bd bb 3c
       0.027591009 -0.044946294 0.17092967 0.022917302
000120 49 21 b7 bd c6 16 6e 3d 1f c8 59 3c f6 e5 0b 3d
       -0.089418955 0.058127187 0.0132923415 0.034154855
000130 d8 be 2c be fa f8 ee bd d8 04 79 3c f7 70 9a bc
       -0.16869676 -0.11668582 0.015198909 -0.018852694
000140 99 f6 31 3d 39 d9 9b 3d d6 0a 9c 3d 83 c5 76 3c
       0.043448064 0.07609791 0.07619254 0.015061739
000150 67 47 e4 3d 80 29 b8 3d b7 eb 16 bd 86 fa 35 bd
       0.111464314 0.089922905 -0.03684589 -0.04442837
000160 eb 65 33 bc f9 b7 95 3c 7a 38 6a 3d 35 55 8e bd
       -0.010949592 0.018276202 0.057182766 -0.06949846
000170 87 dc 10 bd d0 8e 75 3d d5 b9 c9 3d 98 d4 f3 3a
       -0.03536656 0.05995065 0.09849898 0.0018602787
000180 51 17 6e bd 96 4f 4b 3d f6 84 a0 3d a2 ac ca 3d
       -0.058127705 0.049636446 0.0783786 0.09896208
000190 36 a2 b5 3d 58 42 ef 3c 06 18 51 bd 2a 7c ba 3d
       0.0886883 0.02920644 -0.0510483 0.09105714
0001a0 4e e2 da bd f0 c9 b1 bd 14 bd 07 bd 2a 8e 7f bd
       -0.106876954 -0.08681095 -0.033139303 -0.062391438
0001b0 a6 69 3a 3d ce 29 b6 3d 2f 83 bf bc 1d 53 46 bd
       0.04551091 0.08894692 -0.023377983 -0.048419107
0001c0 c7 21 63 3d e0 7e 10 3b 8a ca 0a 3b 5f b4 3e be
       0.055452134 0.002204828 0.0021177852 -0.18623494
0001d0 6e 28 25 bd 4b 08 27 3d 39 89 aa bd a0 ad 28 be
       -0.04032176 0.040779393 -0.083269544 -0.16472483
0001e0 f9 f2 fc 3a b1 96 5c 3d 12 1c 16 3d 21 18 0b 3e
       0.0019298486 0.053854648 0.036647864 0.13583423
0001f0 3a da af bd 70 08 df bd c0 5a 8d bd 4d b4 cd 3d
       -0.08586545 -0.10890281 -0.06902075 0.10044155
000200 0e 95 14 3d f6 a6 ee 3d bc 11 a7 3d 32 2f 2d bd
       0.036274962 0.11652939 0.081576794 -0.042281337
000210 c5 45 f7 bd a4 b7 01 bb 6c c6 11 be 1b d3 c9 3d
       -0.12073854 -0.0019793296 -0.14235848 0.09854718
000220 e2 8f 3b bd ca 3f b5 3d c0 e7 41 3d 43 9d 16 bd
       -0.045791514 0.088500574 0.047340155 -0.03677107
000230 05 1d a5 bd 7c 34 43 bd f9 f9 1b be bc b5 cc bd
       -0.08062176 -0.047657475 -0.15232076 -0.099956006
000240 7b 3a 2c be 8e 81 75 3d 6d 4e a6 3d 03 ec 96 bd
       -0.16819184 0.059938006 0.08120427 -0.073692344
000250 59 10 32 be 32 41 ce 3d e0 f9 a0 bd ed e0 4c 3c
       -0.17389049 0.10071029 -0.0786016 0.012504798
000260 e0 9d bc 3d 59 59 aa bc d5 d2 ea bd 03 50 f7 bd
       0.092098 -0.020794557 -0.11465994 -0.12075808
000270 02 46 b3 3d 8f 60 f2 bd 4a b2 aa 3d 54 19 22 be
       0.08753587 -0.11834823 0.08334787 -0.15829974
000280 5b 4d ca bd 21 f2 34 be 20 37 97 3c 32 51 73 be
       -0.09878036 -0.1767049 0.018458903 -0.23761442
000290 0b 37 f9 bd 45 c9 34 be 5b 9b e3 bd c2 7c 43 be
       -0.12168702 -0.17654903 -0.11113616 -0.1909056
0002a0 e8 4e 80 bd a3 1c 85 3d be 96 f0 3d b7 dc f2 bd
       -0.0626505 0.06499603 0.11747502 -0.11858504
0002b0 e1 ba c6 bd 8c c7 3c bd f7 19 6b bc b4 0e 09 3e
       -0.09703613 -0.04608874 -0.014349452 0.13384515
0002c0 d3 e1 0a 3e 0c ef 80 bd 2d cc b7 3d 68 e2 c4 bc
       0.13562708 -0.062955946 0.0897449 -0.02403374
0002d0 3e 72 c9 3d 93 da b9 3c bb 35 22 be b3 62 26 3c
       0.09836243 0.022687232 -0.15840809 0.010155368
0002e0 71 76 1a 3e 38 3c b7 bd ae 5c 94 bc 2c 14 13 3e
       0.15084244 -0.08947033 -0.0181106 0.14363164
0002f0 3a fc 1c bd df cf e7 3d 72 ca 3d bd d2 50 3d 3e
       -0.03832648 0.11318945 -0.046335645 0.18487862
000300 6b 55 95 3d b1 16 5d 3d fd cf 18 bd 24 fe c9 bd
       0.07291683 0.05397672 -0.037307728 -0.098629266
000310 71 f9 fc 3c 5f 25 bc bc 3a 24 32 bc 35 6a fd 3b
       0.030880662 -0.022967039 -0.010872895 0.007733608
000320 63 33 5e 3d 24 74 57 3d 88 e8 ca 3d cc 70 6f bd
       0.054248225 0.052600995 0.09907633 -0.05845718
000330 58 a9 e6 ba c6 19 96 3d 38 6e e1 bd c1 19 ba bd
       -0.0017598076 0.07329135 -0.11007351 -0.090869434
000340 09 0c 0d be 61 4e 22 3d 63 b2 28 3e ee 58 5d bd
       -0.13774122 0.03962553 0.16474299 -0.054039888
000350 d0 f1 c2 3d fd 09 0c be e4 ae 10 bd 8c 39 b8 3d
       0.09518778 -0.13675685 -0.03532304 0.08995351
000360 eb ab e5 3d ff 1e cc bd 02 8f 21 3e 00 99 c2 3d
       0.112144314 -0.099668495 0.1577721 0.09501839
000370 fd 0b 89 bd 10 6e 90 ba 34 98 37 bc d2 53 c9 bd
       -0.0669174 -0.0011019129 -0.011205722 -0.098304406
000380 d3 27 71 bc e5 66 49 be e7 ca f9 3d be eb 97 3d
       -0.0147189675 -0.19668157 0.12196904 0.07418011
000390 c0 48 99 bd 05 be 02 be 3a d7 21 be a6 83 dc bc
       -0.07484579 -0.12767799 -0.15804759 -0.026918244
0003a0 49 f3 d9 bd a8 89 34 3d f5 4b 16 3c 0f da eb bb
       -0.10642106 0.04407659 0.009173383 -0.0071976255
0003b0 06 3c 1f 3e e6 cd 56 bd 6b 32 f5 bd be 51 a7 bd
       0.15550241 -0.052442454 -0.11972507 -0.08169888
0003c0 91 71 03 be 30 a0 da bd 99 8e d1 3d 12 06 77 3d
       -0.12836291 -0.106750846 0.102322765 0.060308523
0003d0 6f e2 7a 3c 93 9b 9e 3d 38 b2 48 be 76 f9 4a be
       0.015312775 0.07744517 -0.19599235 -0.19821724
0003e0 bf 72 c7 3d 75 f2 94 3b f7 f5 af 3c d4 ca 2f bd
       0.09738683 0.0045455047 0.02147959 -0.04291804
0003f0 85 cb 4f 3c ba cf a9 3d 6a 4f 05 3e 6d 39 53 bd
       0.0126828 0.08291574 0.13018575 -0.051568437

arith.constant6 f4 [128]
000000 28 c4 03 bc 04 24 63 b9 42 0e bf 3b cd 93 86 3c
       -0.008042373 -0.00021661824 0.005830557 0.016427899
000010 ae 08 8a 3c 0c dd 53 3b 65 09 cf 3b 3c 3c b0 3c
       0.016849842 0.00323278 0.0063182586 0.021513097
000020 6a a5 2d 3c a3 89 33 bc 03 72 f4 3b 1c 5b 16 3c
       0.01059852 -0.010958108 0.0074598803 0.009176996
000030 d3 70 a2 3c 3e e9 cc 39 a5 27 4c bb 0b cb 98 bc
       0.01982919 0.0003908369 -0.003115156 -0.018651506
000040 b9 01 a9 3c ae c4 55 3b 2e 8a 1e 3b b6 9e df 3c
       0.020630704 0.003261845 0.0024191248 0.027297359
000050 13 f1 53 3c 54 7b dc 3b ba d7 75 bc f1 75 09 3c
       0.012935895 0.006728569 -0.0150050465 0.008389936
000060 e7 bb 73 3c c2 08 c2 3b 47 a5 11 3d a4 cb 38 3c
       0.014876342 0.005921454 0.03555801 0.01127902
000070 2c 30 d1 3c 25 fd bf 39 78 14 2c bc 96 cf 9f b8
       0.025535665 0.00036618966 -0.010502927 -7.620377e-05
000080 17 3f c7 bb ed 7a 0e 3c a0 cd 89 3a ee 5c b5 3b
       -0.006080519 0.0086963 0.0010513552 0.0055347597
000090 26 23 9d bb 37 98 22 3b 65 dc 0f 3a 64 38 df 3b
       -0.00479545 0.0024809965 0.00054878584 0.006812142
0000a0 f3 10 b0 3c a3 0e 04 bc 02 7d 25 bc 59 02 ee 3c
       0.021492457 -0.00806013 -0.010100605 0.029053854
0000b0 d2 f8 84 bb e5 30 23 bb 0e 82 89 3c 39 67 36 b8
       -0.004057982 -0.002490097 0.016785648 -4.3488315e-05
0000c0 8d 84 e8 3b 45 28 76 bb e7 ae 45 bb b7 cc e4 3b
       0.0070958794 -0.0037560624 -0.0030164064 0.0069824117
0000d0 d9 02 92 bc 18 27 6d bb f5 fe 72 bc 14 56 b8 bc
       -0.017823623 -0.0036186632 -0.014831294 -0.022501983
0000e0 0e 8e df 3b 9d 5c 3e 3c 6a 13 a6 39 64 76 e3 3c
       0.006822354 0.01161876 0.00031676452 0.027766414
0000f0 2f 7e b8 3b 13 18 d3 bb 88 47 9d 3c 17 19 28 bc
       0.0056302766 -0.006442079 0.019199148 -0.010259888
000100 12 13 1b bc 8f 39 ac 3c 1c c2 54 3c 42 9d d2 bc
       -0.009464996 0.02102354 0.012985732 -0.025709752
000110 f8 3e b7 bb 3f f7 9f bc 1d 90 52 3c d2 d9 77 bb
       -0.0055922233 -0.019527076 0.012851742 -0.003781904
000120 7c bb d7 3c 70 9b 14 3d e7 ad 83 3c 4c d9 89 bc
       0.026334517 0.03628105 0.016074134 -0.016827248
000130 86 51 e5 3b 9a 22 cd 3b 1c 26 9f 3c 8e bd 4d 3c
       0.0069982437 0.0062602283 0.019427352 0.0125574
000140 2e c8 ae bc 35 6d a1 3c 12 fb 92 3c ee 2a 83 bc
       -0.021335687 0.019705394 0.017941985 -0.016011681
000150 ea b4 e6 3b 24 55 66 3c 0b 45 77 3c 10 64 f0 ba
       0.0070406096 0.014058385 0.015092145 -0.0018340368
000160 db cf b7 bc d8 c0 94 3c fa fa e8 3c 6b 93 a9 3a
       -0.02243798 0.018158361 0.028439987 0.0012937611
000170 ec 6d 5c 3c aa a6 9f 3c 62 f5 b7 3c ad 5a 8d bb
       0.013453942 0.019488651 0.022455875 -0.004313788
000180 78 81 ea 3b 8b b7 e9 3b 6f ef 06 3c 0a 88 b2 bc
       0.007156547 0.0071324757 0.008235796 -0.021793384
000190 00 00 00 00 b6 9d 91 bc 15 14 a9 3c 3f c5 d0 3c
       0.0 -0.017775398 0.020639459 0.02548468
0001a0 6f 1f a8 ba 1e 67 dc bb ab 85 ce bc 29 fb 60 3c
       -0.0012826751 -0.0067261597 -0.025210222 0.013731756
0001b0 09 2f f1 bb 53 1b 87 3c dd 24 49 bc e3 1c fe bc
       -0.0073603434 0.016492521 -0.012276855 -0.031019634
0001c0 6e fd 9f bb cb b4 f8 bc 18 f6 03 3d eb 64 96 3c
       -0.004882506 -0.030359646 0.032217115 0.018358668
0001d0 6e be dc bb 7c dd b9 bb d1 2b 74 bc 39 46 1b 3a
       -0.006736568 -0.005672155 -0.014903025 0.0005923245
0001e0 67 2b a4 3b 42 95 cf bb 2a 40 92 ba 3c 11 02 3b
       0.005010057 -0.0063349316 -0.0011158038 0.0019846698
0001f0 d6 7e a6 bc 28 4c 08 3b 76 6e da 3b c0 ea c5 3c
       -0.020324152 0.0020797346 0.006666 0.02415979

arith.constant7 f4 [4]
000000 9d 7d 13 be d6 b0 a1 bc bf a4 58 3d ab d6 bb 3c
       -0.14403386 -0.019737642 0.05289149 0.02292951

sequential_1/batch_normalization_1_2/batchnorm/mul f4 [64]
000000 b8 84 dd 3e 0f 48 bd 3e 68 62 90 3e 6c 6d c6 3e
       0.4326532 0.3696904 0.28200078 0.38755357
000010 e3 55 45 3e 90 bd 09 3f 9c 4a 17 3f 3f 22 13 3f
       0.19271044 0.53804874 0.5909822 0.5747413
000020 6e 5e a2 3e 2a c2 cc 3e fc 17 7b 3f f2 5f 2d 3f
       0.3171267 0.39991885 0.9808347 0.67724526
000030 ed 7e f4 3e a8 8d 33 3e 6f a6 cd 3e 27 d3 12 3f
       0.47753087 0.17534506 0.4016604 0.5735344
000040 d0 06 e5 3e 92 71 dc 3e 70 fe 92 3e 12 31 64 3e
       0.4473176 0.43055397 0.28709745 0.22284344
000050 b2 7b 01 3f ce b0 0a 3f b7 ee 22 3f f8 3a a8 3e
       0.5057937 0.5417603 0.636455 0.3285749
000060 fa 8c 0e 3f 42 58 28 3f ef c7 19 3f c4 b3 d0 3e
       0.55683863 0.6575967 0.600707 0.4076215
000070 71 41 fc 3e ed 6b d5 3e 07 3f bc 3e 66 92 33 3f
       0.49268678 0.41683903 0.36766836 0.7014526
000080 b6 02 df 3e d9 5f de 3e 32 a8 dd 3e 1b 3d 8d 3e
       0.43556756 0.434325 0.43292385 0.27585682
000090 2c 97 0e 3f 4f 84 48 3f 03 fb fe 3e a0 95 49 3e
       0.5569942 0.78326887 0.49800882 0.19685984
0000a0 cd c9 9b 3e 77 fc 00 3f 69 4b 22 3e d6 fb fc 3e
       0.304274 0.5038523 0.15849079 0.49410886
0000b0 4a 32 2e 3f 7a 2b 3b 3e 34 89 1e 3f 92 ac 7b 3e
       0.68045485 0.18278304 0.61928105 0.24577549
0000c0 64 a3 d9 3e 66 20 09 3f 60 2b 09 3f 2e c1 09 3f
       0.4250747 0.5356506 0.5358181 0.53810394
0000d0 00 9f 08 3f a8 35 9d 3e fe f3 0b 3f f7 21 2a 3f
       0.53367615 0.30705 0.5466918 0.66458076
0000e0 e6 54 d9 3e 59 a6 a0 3e 85 86 ad 3e 63 58 ce 3e
       0.42447585 0.31376913 0.33891693 0.4030181
0000f0 2d 98 41 3e bc 6f 63 3f 06 f1 05 3f 6f c4 0c 3f
       0.18905707 0.8884237 0.523209 0.54987234

sequential_1/batch_normalization_1_2/batchnorm/sub f4 [64]
000000 f9 39 94 bd 21 a8 b6 bd 5b 44 2f 3f 66 e3 8f 3c
       -0.0723762 -0.08918787 0.6846368 0.017564487
000010 1f 67 3b 3f 8e ce e3 be 54 7e 5c be 54 a9 40 3b
       0.73204225 -0.44493526 -0.21532565 0.0029397802
000020 ab 73 1c 3f 46 09 9c 3e 04 49 5e be 1d 23 89 be
       0.61113995 0.30475825 -0.21707541 -0.26784602
000030 ca 85 86 be 1e e8 49 3f 64 80 0f 3f 95 ae 90 3e
       -0.26273948 0.7886981 0.56055284 0.28258196
000040 31 ec c6 3e d5 03 e2 3e c4 3b 36 3f 7c 96 3f 3f
       0.38852075 0.4414355 0.71184945 0.74838996
000050 80 16 2b be 0e 4a 12 be 88 cd f7 3e 37 42 3e 3e
       -0.16707802 -0.14286062 0.48398995 0.18579946
000060 be 60 6a 3e 82 db 25 be 14 c6 ce be 05 2f 03 3e
       0.22888467 -0.16197017 -0.40385497 0.12810905
000070 22 21 5c be 7e 51 b7 3e 4b 7e 3c 3e 1b 05 ac be
       -0.21497014 0.3580436 0.18407552 -0.33597645
000080 4a 6c f1 3d f4 22 84 3e 6d 51 0f 3e 9a 25 49 3f
       0.117882326 0.25807917 0.13995905 0.78573
000090 33 3a 08 bd 2f 78 c9 3e a0 44 03 3e e3 db 2d 3f
       -0.033258628 0.39349505 0.12819147 0.67913646
0000a0 18 f8 13 3e bb 79 86 3d 43 93 33 3f 1b 4f e0 3c
       0.14450109 0.06566187 0.7014658 0.02738147
0000b0 92 ed e9 bd d9 89 3a 3f df 02 5b bd 3f 29 3f 3f
       -0.11422266 0.7286659 -0.053469535 0.7467231
0000c0 1b cf 41 3d 66 4a 32 3e 03 fe 45 bd 34 c7 18 3e
       0.04731665 0.17411193 -0.048337948 0.1491974
0000d0 2e e3 7c 3e 03 2f 29 3f ba f4 95 3d 03 63 a0 3d
       0.24696037 0.6608736 0.073220685 0.07831385
0000e0 9b 73 0b 3e 97 76 ba 3e 60 da 9f 3e df 13 9a 3e
       0.13618319 0.36418602 0.31221294 0.30093285
0000f0 ae 48 35 3f 8a 46 57 bc b2 30 4b be 1a bf b8 bd
       0.70814025 -0.013139376 -0.19842795 -0.09020825

sequential_1/batch_normalization_1/batchnorm/mul f4 [32]
000000 6f ea 35 3f a4 83 4f 3f dd c0 a4 3f 6e 4a 00 42
       0.7106084 0.8106024 1.2871357 32.072685
000010 0a c8 02 40 60 16 28 40 a6 c1 fc 41 17 af ff 3e
       2.0434594 2.6263657 31.594555 0.4993827
000020 a9 f8 3e 41 54 b8 2d 3f 6b 9b ab 3f a3 04 96 3f
       11.935708 0.6785939 1.3406805 1.1720165
000030 96 b5 8c 3f ea b5 24 40 d7 99 7c 3f 37 0d a8 3f
       1.0992916 2.5736032 0.9867224 1.3129033
000040 b2 d3 da 41 be 8e 27 3e 29 e4 61 3f c2 f4 c1 41
       27.353367 0.16363046 0.8823877 24.24451
000050 46 10 b1 3d 0b d6 25 41 4a 38 bd 3f 09 75 40 3f
       0.08645682 10.364757 1.4782803 0.7517858
000060 a3 f2 4b 3f 4c a5 3a 41 c5 7f c2 40 03 7e d2 40
       0.7966711 11.665356 6.078097 6.5778823
000070 47 2c 9b 3e 72 44 c0 41 99 46 75 3f 58 ff 8f 3f
       0.30307218 24.03342 0.9581085 1.12498

sequential_1/batch_normalization_1/batchnorm/sub f4 [32]
000000 51 f9 82 bf 21 ac cb bf 11 b1 91 bf b5 e3 4c be
       -1.0232335 -1.5911905 -1.1382161 -0.20008738
000010 31 38 7c be b8 d5 a4 bf 46 9f 80 3e 9b c8 01 c0
       -0.2463081 -1.2877722 0.25121516 -2.027869
000020 8e 39 9b bd 6f f0 97 bf ac ae 3f bf fa 31 00 c0
       -0.07579337 -1.187025 -0.74875903 -2.0030503
000030 7f 4d 15 bf 0e ff a3 bd d8 cf 59 be 7a 25 bb be
       -0.58321375 -0.08007632 -0.21270692 -0.3655203
000040 dc 1b 02 be 47 73 0b c0 13 6f 96 bf 9c 77 b3 bd
       -0.1270594 -2.178911 -1.1752647 -0.08763048
000050 7c 1a 0e c0 06 b9 4b bd 29 7a 9a bf 73 9b d3 be
       -2.2203665 -0.049737 -1.206853 -0.41329536
000060 c6 4e 2c bf 7e 2a ef bc 65 72 97 bd fe 75 9a bd
       -0.673077 -0.029195067 -0.07394866 -0.075420365
000070 36 cf 0c c0 31 b9 1d 3d 0f 91 a4 bf 03 ce b9 bf
       -2.2001472 0.03850669 -1.2856768 -1.4515995

sequential_1/batch_normalization_2_1/batchnorm/mul f4 [128]
000000 20 25 a9 3e cf ca ca 3e 0f 39 e8 3d 32 e8 a5 3d
       0.33036137 0.39607856 0.11339008 0.08100928
000010 89 76 a8 3e b6 e7 d6 3d 00 9f f6 3d 4f 6a 92 3e
       0.32902935 0.10493414 0.120420456 0.28596732
000020 31 88 a4 3e a3 76 2c 3f 37 ce 02 3f a3 c9 38 3e
       0.32135156 0.67368525 0.5109591 0.18045668
000030 c3 72 c6 3e 56 5a 00 3f 08 f3 ed 3d e4 f2 05 3f
       0.3875943 0.5013784 0.1161862 0.52323747
000040 3c 85 eb 3d 48 f3 01 3f 2f 0a b7 3e f4 78 ed 3e
       0.11500022 0.5076184 0.35749957 0.46381342
000050 89 fd 54 3e 5a 1d 90 3e 02 25 0d 3f c0 8b c9 3e
       0.20799841 0.28147393 0.55134594 0.39364433
000060 e7 3a 2f 3f eb 35 91 3e 33 db 24 3e 62 50 8c 3e
       0.6844925 0.2836145 0.16099243 0.27405077
000070 0f 25 83 3e 36 0a 6c 3e 4a a9 d6 3d e6 51 a8 3e
       0.2561421 0.2305077 0.10481508 0.32874984
000080 60 75 82 3e 1a 15 8c 3e 8e 3f bf 3e 14 79 5c 3e
       0.25480175 0.2735985 0.37353176 0.21530563
000090 55 28 d6 3e 9b 8d eb 3e 19 d2 df 3e a7 4b f2 3e
       0.41827646 0.46006474 0.4371498 0.47323343
0000a0 ef 81 ce 3e 7d ca fc 3d d3 ca 49 3f 2d 4a e4 3e
       0.40333506 0.12343309 0.7882511 0.44587842
0000b0 0d f7 16 3f 41 a1 b3 3e d2 fb 8f 3e b7 72 46 3f
       0.5897072 0.35083964 0.2812181 0.7751879
0000c0 b8 3c fd 3e b8 cc a5 3e bd a5 1a 3e c8 8e a6 3e
       0.49460387 0.3238275 0.15102287 0.32530808
0000d0 c6 c9 dc 3e 62 fd c1 3e e6 b2 d3 3d b4 d6 27 3e
       0.4312269 0.37888628 0.103368565 0.16390496
0000e0 2c ef 75 3e ec 1c 64 3e 75 ae c4 3d 33 db 23 3f
       0.24017018 0.22276658 0.096035875 0.64006346
0000f0 9f 04 a9 3e 92 48 af 3e 7e bc 21 3f 56 ab 66 3e
       0.33011338 0.34235054 0.6317824 0.22526297
000100 f9 33 08 3f b6 7c 2e 3e 81 5c 87 3e 69 e4 09 3f
       0.53204304 0.17039761 0.26437762 0.5386415
000110 a6 a9 c4 3d 81 58 1c 3e 90 d3 b2 3e 3a 96 92 3e
       0.0960267 0.15268137 0.34927034 0.2863024
000120 0b a4 28 3e a4 8f 31 3e fd 8a 91 3d 66 18 f1 3e
       0.16468827 0.17339951 0.07106588 0.47088927
000130 59 f1 f1 3e d3 5a be 3e 56 b5 c2 3d 39 04 ee 3e
       0.47254446 0.37178668 0.09507243 0.46487597
000140 60 d5 31 3f 83 9f 56 3e 55 1b d0 3e 3b 7b 01 3e
       0.6946621 0.20959286 0.40645853 0.12644665
000150 8e 7f 2c 3f 9b 9b a2 3e da b4 cc 3e 3f ea 09 3e
       0.67382133 0.31759343 0.3998173 0.13468264
000160 c9 03 12 3f 7b da f5 3e 80 4a f9 3e 27 01 56 3e
       0.57037026 0.4801825 0.4868965 0.20898877
000170 69 b3 bd 3e a5 32 8f 3e 70 44 c8 3d 99 32 19 3e
       0.37050942 0.27968326 0.097786784 0.14960708
000180 7d a6 80 3e e2 ec 92 3e a3 30 9c 3e 05 8d af 3d
       0.2512702 0.28696352 0.30505857 0.08571819
000190 c6 66 c4 3e 3a e6 b6 3e ae 9f 04 3e 29 ea f4 3e
       0.3835966 0.35722524 0.12951538 0.478349
0001a0 04 76 3b 3e af 88 b8 3e 1c 8d 0f 3f 49 fa b5 3d
       0.18306738 0.3604178 0.5607469 0.08885629
0001b0 28 5d de 3e d3 c5 7a 3e 4f 9c 6f 3e f2 35 22 3f
       0.43430448 0.24489526 0.23399471 0.63363564
0001c0 2c 2f 00 3f 35 f6 ba 3e 32 fa e7 3d 67 b2 bf 3d
       0.5007198 0.36515966 0.11327018 0.093601994
0001d0 db 3b 29 3f 7f cb e5 3e f0 8c 48 3e 18 d5 19 3f
       0.6610696 0.44881818 0.19585013 0.6009078
0001e0 df 47 11 3f de 59 3e 3f 85 49 98 3d 93 04 0d 3f
       0.5675029 0.74355876 0.07435898 0.55085105
0001f0 12 7a e9 3d 93 50 ad 3e 8d 8b bb 3e 98 f7 47 3e
       0.11400236 0.33850536 0.36629906 0.19528043

sequential_1/batch_normalization_2_1/batchnorm/sub f4 [128]
000000 b3 7b 85 3e fe 8a 28 be b9 63 13 3f b0 e2 db 3e
       0.26070938 -0.16459271 0.5757404 0.42946386
000010 c8 10 b3 be c8 f1 eb 3e 7e 06 26 3f 3b 6d fe 3e
       -0.3497374 0.46082902 0.64853656 0.4969271
000020 62 2e a5 3e 89 56 55 3f fa 02 67 bd f6 7c 58 3e
       0.3226195 0.8333517 -0.056399323 0.21141419
000030 75 11 a0 bd 26 f5 1c bd aa db 03 3f a5 8e 66 3f
       -0.0781583 -0.03831973 0.51507056 0.9006141
000040 c5 04 0e 3f 01 2c 9c bd 51 6c 60 3d 5b cd 5d 3f
       0.5547603 -0.076255806 0.0547908 0.8664147
000050 b3 0e d2 3d 36 8f f9 3e 28 af f5 3c b8 a1 a0 3d
       0.1025671 0.48742074 0.029990748 0.078433454
000060 19 ec cf 3e 8b a0 5e bd c5 ac bd be d4 d6 eb 3e
       0.40609816 -0.054352324 -0.37045875 0.46062338
000070 49 0d bb 3d 50 99 0c 3d 3c ac ec 3e b0 3e fb 3e
       0.09133393 0.034325898 0.46225154 0.49071264
000080 aa 8c 02 3f e9 bf 00 3e e6 cb 12 3f 3b 85 57 3e
       0.50995886 0.12573208 0.57342374 0.21046917
000090 43 ba 64 3e 8b 70 e5 3e c5 16 3e be b1 10 f3 bd
       0.22336678 0.44812426 -0.18563373 -0.11868418
0000a0 8e 7d 22 3f 44 53 25 3f a9 07 9d 3f 86 50 0f 3f
       0.6347283 0.6458018 1.2267963 0.55982244
0000b0 5a 74 c2 be 33 58 30 3f fb b7 aa be d4 16 83 3e
       -0.37979394 0.6888458 -0.3334349 0.25603354
0000c0 66 a4 91 3d 9c 77 40 bd 15 b9 32 3f a6 ed 1d 3f
       0.07111435 -0.04698907 0.6981366 0.6169075
0000d0 96 a8 2e 3f b0 b8 05 bb b8 dc 18 3f 7b 77 39 3f
       0.6822599 -0.0020404272 0.5971179 0.7244794
0000e0 81 2a 80 be d2 0f 3d 3d 7b 8c df 3e f5 5f 2c be
       -0.25032428 0.046157666 0.43661866 -0.1683348
0000f0 a4 9c 40 3f c8 67 7f 3b fe 76 e2 3d e5 26 94 be
       0.75239015 0.003897177 0.11057852 -0.28935924
000100 6c 74 5b 3f b6 74 ab be c0 d9 1f 3e 86 d5 76 3e
       0.8572452 -0.3348748 0.15610409 0.2410489
000110 e6 57 f2 3e 0d 0a e7 3e 40 e6 37 3f 60 b5 32 bd
       0.47332686 0.45124856 0.7183571 -0.043630004
000120 a7 06 a7 be 90 ed be be 2c 85 e8 3e c7 f3 01 3f
       -0.32622263 -0.3729062 0.45414102 0.507626
000130 b6 1a 5e 3c 20 a4 67 3d 75 79 e5 3e 97 6d 92 3d
       0.013556173 0.056553006 0.44819227 0.07149809
000140 6b 21 c7 3e 8e 80 3c 3f a5 f1 99 3d e7 61 a7 3e
       0.38892683 0.7363366 0.07516793 0.3269188
000150 04 07 fe bd f9 eb 18 3f f6 c4 5c 3e 98 cc 92 be
       -0.12403682 0.59735066 0.2155951 -0.28671718
000160 f4 df cd 3b d8 79 89 3e 5c 6a 8a 3e 47 22 fa 3e
       0.006282801 0.26850772 0.2703427 0.48854277
000170 fa 5d 84 3c e3 9a 0b 3e e2 9c f1 3e c5 27 e0 3e
       0.016158093 0.13633303 0.47190005 0.43780342
000180 51 d1 29 bd df 90 29 be b3 79 a1 be 64 13 e2 3e
       -0.041459385 -0.1655917 -0.31538162 0.4415542
000190 2c b3 31 3e 97 db c2 be 0c 24 19 3f 26 f9 1f 3f
       0.17353505 -0.3805816 0.5982063 0.62489545
0001a0 b4 fa a3 be 1d 6f 95 3e 16 cd 95 3f c6 26 17 3f
       -0.3202721 0.29186335 1.1703212 0.5904354
0001b0 6a bc 1f 3f 90 dd 5e bd ad 47 b5 3e 45 01 ad be
       0.6239687 -0.054410517 0.35406247 -0.3379003
0001c0 30 f3 28 3c cc 50 37 bc 84 e6 c9 3e 6e e3 e6 3e
       0.010311887 -0.011188697 0.39433682 0.4509539
0001d0 bc 84 89 3f 15 ac 93 bd d4 63 41 3e 64 cd 50 be
       1.0743632 -0.072105564 0.18885738 -0.2039085
0001e0 d0 65 60 3e e5 53 68 3f 6d ee eb 3e e7 36 eb bd
       0.21913838 0.9075301 0.46080342 -0.11485081
0001f0 d2 eb fb 3e 11 81 0d 3f c8 6a ca 3e 34 10 8e be
       0.49203354 0.55275065 0.39534593 -0.27746737
